mnist_1layer_float32/mnist_model.tflite (tflite, 32600 bytes, 2 tensors)

dense_4/bias f4 [10]
-0.119945735 -0.020092718 0.16826795 -0.114900306 0.2489132 0.88325346 0.08565379 0.52215385
-0.8069148 -0.03782626
00000000: 1ca6 f5bd 7c99 a4bc 6f4e 2c3e da50 ebbd
00000010: 1ae3 7e3e e61c 623f 416b af3d e0ab 053f
00000020: f891 4ebf b5ef 1abd

sequential_3/dense_4/MatMul f4 [10, 784]
-0.06379906 0.06251342 -0.04498951 0.072614364 0.009148993 0.03067226 0.016581886 -0.050859455
-0.06246243 0.08016095 -0.03508323 0.016719028 0.01993391 -0.009347208 -0.06263837 0.037704676
0.037447058 -0.04068229 0.08375027 -0.0019418374 0.074271165 -0.07026366 0.041012578 0.0010242164
0.05651108 -0.024653234 0.025471605 0.043801315 -0.06971334 0.054464556 -0.08466255 -0.086352885
-0.078980796 0.047705136 -0.060398936 -0.0137101 -0.008667866 -0.06557071 -0.20398174 0.070965946
0.17126085 0.047170456 -0.3773229 -0.1636073 -0.38754103 -0.24823856 -0.3213295 -0.030790966
-0.0016531415 -0.011410065 0.014195777 -0.010784879 -0.07928391 -0.0376768 0.051248945 0.029042691
-0.066512614 -0.04334666 0.004139155 0.061021723 0.041253556 -0.19401242 -0.26472294 -0.20770423
-0.27298045 -0.3783238 -0.45823622 -0.19084597 -0.2582063 -0.30243078 -0.5182146 -0.88755345
-0.59123564 -0.79563373 -0.817747 -0.5701931 -0.47647542 -0.52001256 -0.26086527 -0.16598576
-0.05609204 -0.038012326 0.042277597 0.009913474 -0.053450495 0.08303914 -0.059393086 0.10596824
-0.06528173 -0.24492887 -0.30131763 -0.167021 -0.020061312 -0.22569782 -0.09929939 -0.020057505
-0.046084747 -0.038673308 -0.018461296 -0.05891294 0.037599254 -0.062114377 -0.28054065 -0.28210226
-0.23812109 -0.38369772 -0.41426885 -0.14750491 -0.11056368 -0.05063327 -0.16664846 -0.029075522
0.013582639 0.039886884 -0.077602714 -0.03271658 -0.17197126 -0.25326532 -0.2497511 -0.099579886
-0.0440323 0.11587886 0.032283597 0.054817952 -0.1282771 0.011822965 -0.087816365 -0.01247408
-0.02797747 0.017110134 -0.030787993 -0.16222292 -0.14603484 -0.114275336 -0.02664029 -0.15815677
-0.29632214 -0.22893575 -0.116525546 -0.043311343 0.05054239 -0.040883433 -0.21967429 0.00081551407
-0.2869579 -0.38311818 -0.09378692 -0.06387062 0.010615063 -0.07464148 0.08222276 0.0856795
-0.094150886 0.058940567 0.18524988 0.07994836 0.0411726 0.18514723 0.1944569 0.05362348
-0.040179376 -0.029555054 0.010603188 -0.25579453 -0.30318648 -0.736573 -0.5519851 -0.11270483
-0.07599951 0.035104513 -0.1544107 -0.18901588 -0.37567082 -0.1044146 -0.10503411 0.07792926
-0.01515993 -0.20979546 0.08352829 0.054843906 0.04233728 0.11636857 0.15744968 0.13166134
0.1176994 0.26106316 0.19094084 0.09611855 0.05997588 0.2222522 0.1352957 -0.123779185
-0.44509903 -0.9583919 -0.63718426 -0.08090987 -0.085479796 -0.18147515 -0.1298628 -0.25042018
-0.3858925 -0.10150953 0.061095774 -0.10299055 -0.19678067 0.011391498 0.093201265 0.14095634
0.0649757 0.1684406 0.06062603 0.1708826 0.16997765 0.2410252 0.2499748 0.10428322
0.08674038 0.077720836 0.118606746 0.21925005 -0.11014303 -0.6481255 -0.46517143 -0.21818715
0.14305224 -0.10442432 0.026676547 0.03829989 -0.37943977 -0.046706337 -0.0080572115 -0.022360444
0.0045213443 0.09550725 0.14749023 0.14707299 0.113454826 0.06084608 0.08600506 0.21164025
0.36259362 0.2527858 0.32689816 0.2348943 0.12890095 0.12914573 0.15225536 0.31231043
0.036942903 -0.6617869 -0.6256928 -0.15163058 0.03565857 -0.04582104 0.15931442 0.016276196
00000000: 15a9 82bd 0907 803d ec46 38bd d7b6 943d
00000010: a8e5 153c 6444 fb3c bcd6 873c 0152 50bd
00000020: 9bd8 7fbd 6d2b a43d 6fb3 0fbd 58f6 883c
00000030: 704c a33c 0825 19bc 8c48 80bd 3870 1a3d
00000040: 1662 193d 79a2 26bd 4385 ab3d 4085 feba
00000050: 7b1b 983d 65e6 8fbd cefc 273d 003f 863a
00000060: 2a78 673d 94f5 c9bc d4a9 d03c 0269 333d
00000070: dec5 8ebd 3a16 5f3d 8f63 adbd c8d9 b0bd
00000080: afc0 a1bd 7666 433d e064 77bd 54a0 60bc
00000090: aa03 0ebc f049 86bd 97e0 50be 9856 913d
000000a0: 015f 2f3e cf35 413d 7830 c1be ac88 27be
000000b0: c76b c6be 4032 7ebe 4d85 a4be 563d fcbc
000000c0: 39ae d8ba 48f1 3abc 6795 683c 10b3 30bc
000000d0: 9a5f a2bd fd52 1abd 6aea 513d f0ea ed3c
000000e0: c437 88bd 448c 31bd c0a1 873b eaf1 793d
000000f0: 7df9 283d 31ab 46be c489 87be 6bb0 54be
00000100: 18c4 8bbe a8b3 c1be f09d eabe 206d 43be
00000110: 9e33 84be 35d8 9abe b6a9 04bf b436 63bf
00000120: 385b 17bf a7ae 4bbf de57 51bf 2df8 11bf
00000130: 96f4 f3be 8b1f 05bf 2290 85be 2cf8 29be
00000140: c4c0 65bd d0b2 1bbd 462b 2d3d 206c 223c
00000150: e8ee 5abd 6d10 aa3d 2a46 73bd e005 d93d
00000160: 6db2 85bd a2ce 7abe 4e46 9abe 8e07 2bbe
00000170: 9f57 a4bc 541d 67be 7b5d cbbd a34f a4bc
00000180: 5cc3 3cbd e767 1ebd 253c 97bc b24e 71bd
00000190: ad01 1a3d a56b 7ebd 06a3 8fbe b56f 90be
000001a0: 04d6 73be 0774 c4be 0c1b d4be 870b 17be
000001b0: 366f e2bd d564 4fbd e5a5 2abe ca2f eebc
000001c0: b889 5e3c 6e60 233d 2cee 9ebd d201 06bd
000001d0: 3c19 30be feab 81be c1be 7fbe 8af0 cbbd
000001e0: 375b 34bd e551 ed3d ce3b 043d ca88 603d
000001f0: 125b 03be 1cb5 413c 11d9 b3bd 1560 4cbc
00000200: 0231 e5bc 8d2a 8c3c 1a37 fcbc c41d 26be
00000210: 288a 15be 3009 eabd bd3c dabc d9f3 21be
00000220: 89b7 97be 226e 6abe f2a4 eebd 3c67 31bd
00000230: 8a05 4f3d 6375 27bd 4cf2 60be 39c8 553a
00000240: 25ec 92be 1128 c4be 5b13 c0bd 9ace 82bd
00000250: cdea 2d3c a2dd 98bd 6864 a83d bc78 af3d
00000260: 2ed2 c0bd aa6b 713d 25b2 3d3e f7bb a33d
00000270: 9aa4 283d 3c97 3d3e b61f 473e 4ba4 5b3d
00000280: 2193 24bd 711d f2bc feb8 2d3c 80f7 82be
00000290: 423b 9bbe 0c90 3cbf e54e 0dbf cad1 e6bd
000002a0: a2a5 9bbd c0c9 0f3d d71d 1ebe 618d 41be
000002b0: ed57 c0be 52d7 d5bd 201c d7bd 6099 9f3d
000002c0: 5b61 78bc 9fd4 56be e110 ab3d 01a4 603d
000002d0: db69 2d3d a552 ee3d 7d3a 213e 3bd2 063e
000002e0: 620c f13d 12aa 853e ff85 433e cdd9 c43d
000002f0: 45a9 753d 1596 633e f58a 0a3e f17f fdbd
00000300: 05e4 e3be 2c59 75bf 821e 23bf 13b4 a5bd
00000310: 0810 afbd 9fd4 39be c1fa 04be 1337 80be
00000320: b493 c5be 3ae4 cfbd 903f 7a3d b6ec d2bd
00000330: df80 49be 68a3 3a3c 4ee0 be3d dc56 103e
00000340: fb11 853d b17b 2c3e 0053 783d d9fb 2e3e
00000350: 9f0e 2e3e 4fcf 763e 65f9 7f3e 7192 d53d
00000360: f1a4 b13d 1a2c 9f3d 18e8 f23d 1683 603e
00000370: ab92 e1bd 8eeb 25bf f32a eebe 746c 5fbe
00000380: 497c 123e 6bdc d5bd c688 da3c 58e0 1c3d
00000390: ee45 c2be 254f 3fbd 6502 04bc 402d b7bc
000003a0: c927 943b 4e99 c33d ae07 173e 4d9a 163e
000003b0: 015b e83d bd39 793d 6c23 b03d 39b8 583e
000003c0: dfa5 b93e 246d 813e 325f a73e 2288 703e
000003d0: 9cfe 033e c73e 043e d4e8 1b3e 27e7 9f3e
000003e0: 7151 173d de6a 29bf 672d 20bf 0c45 1bbe
000003f0: b80e 123d d8ae 3bbd 5223 233e a855 853c
