mnist_float32/dense_1_bias.npy (npy, 640 bytes, 1 tensors)

array f4 [128]
000000 76 82 86 bd 36 c9 0d 3e d2 6b 82 bd da a5 3e 3c
       -0.06567852 0.13846287 -0.06368221 0.011636222
000010 b3 27 cd 3d 2a 4e a0 3c 2f f3 56 3c 5f ad 51 3d
       0.10017338 0.019568522 0.013119503 0.05119073
000020 31 83 09 be 25 fe fd bd 40 3e 7d 3d 18 72 a1 3d
       -0.13428952 -0.1240199 0.061826944 0.0788309
000030 e2 4e 58 bd 12 be e5 3c 87 fd 3b 3d ef 8e de 3b
       -0.052809604 0.028044734 0.04589608 0.0067919414
000040 24 f8 09 3d bc 82 ac 3d df fa 42 bc de 86 d0 39
       0.03368391 0.08423373 -0.011900633 0.00039773335
000050 a7 4d 2b 3e bf 6b ee 3c da 11 0c 3e 0f 3c 96 bc
       0.16728841 0.029104112 0.13678685 -0.018339185
000060 2a af 84 bd 8b fa b9 3b 48 79 58 bc 85 79 c3 bd
       -0.064787224 0.005675619 -0.013212509 -0.095446624
000070 8f 08 b5 3c dc 14 c4 bd e2 96 40 3e e3 7b 0f be
       0.022098808 -0.09574291 0.18807557 -0.14012103
000080 94 92 b9 3d d8 76 c4 bd f3 ee d7 3d 6b a2 15 3d
       0.09061161 -0.0959298 0.10543623 0.036531847
000090 0f af e5 bc b3 1b 87 3c 9f 0a 3d 3d 3d 19 4c 3d
       -0.028037576 0.0164927 0.046152707 0.049828757
0000a0 5b 7b 69 bb a8 a5 02 3e bc 14 bd 3b fa b0 d4 3d
       -0.0035626504 0.12758505 0.005770294 0.10385318
0000b0 58 76 9b bd 4e 14 86 bd 55 f4 ad 3c a9 a6 f4 bc
       -0.07590932 -0.065468416 0.02123467 -0.029864626
0000c0 f3 c0 19 3e b6 06 ec 3c b9 c2 f6 3d 07 d5 82 bd
       0.1501501 0.028811794 0.12048859 -0.06388288
0000d0 9c fd e8 bd 1f 64 81 3c 07 7a 08 3d 35 91 30 bd
       -0.11376497 0.015794812 0.0333195 -0.04310723
0000e0 da ea ff bd 21 bf cf bd 29 04 ad 3c 29 bb 42 3d
       -0.12495966 -0.10143877 0.021120148 0.04754177
0000f0 a6 94 11 bd 1f a2 41 3e 90 69 43 bd 38 31 b6 3c
       -0.035542153 0.189095 -0.047708094 0.022240266
000100 83 e6 83 bd 96 86 04 3d f7 d0 19 bd e4 c9 57 3d
       -0.06440451 0.032354914 -0.0375528 0.052682772
000110 36 5b d1 3c 31 10 02 be 12 1c 5e 3d ae 88 0b be
       0.025556188 -0.12701489 0.05422599 -0.13626358
000120 15 22 bb 3d e8 f4 12 bd 54 3e 5a 3d 6c 0b a0 3a
       0.0913736 -0.035878092 0.053282097 0.0012210435
000130 c6 25 6e bb 13 ff 85 3d 50 8e 8e 3d 67 78 b6 3d
       -0.0036338433 0.06542792 0.06960738 0.08909684
000140 04 de bf 3d 28 60 06 3d ac 84 9b 3c f1 d4 d8 3b
       0.09368518 0.032806545 0.018984161 0.0066171815
000150 d0 28 86 bc 9d e8 a8 bd ca 5f 3c 3d 11 55 37 bc
       -0.016376883 -0.082474925 0.04598979 -0.011189715
000160 0b 8d 35 3d d4 0d 8d bd 40 d1 e2 3d d8 83 2a 3e
       0.044323962 -0.06887403 0.110750675 0.16651857
000170 be 83 60 bc 36 af b0 bb e8 85 ba 3d 7b ed 6b 3c
       -0.013703285 -0.0053919805 0.09107572 0.0143998815
000180 27 6f 37 3e e7 37 1d 3e 32 e5 03 3d 01 bd 85 3d
       0.17913495 0.15353356 0.032201 0.0653019
000190 30 d1 6c bd 2a 42 62 3d 92 a9 44 3d 52 f5 4d 3d
       -0.057816684 0.05523888 0.048013277 0.050282784
0001a0 9a 36 f4 3c 33 fb 73 3e 86 1b 18 3e 3b b6 2e bd
       0.029811192 0.23826294 0.1485425 -0.042654257
0001b0 44 d5 6b 3e 97 e9 08 be 0a 15 ca 3d e4 c6 e4 3d
       0.23030573 -0.13370357 0.09867294 0.11170748
0001c0 de 6a 0e 3e 4e 19 46 3e 3a 33 07 3e bf 0e 69 3d
       0.13907954 0.1934559 0.13203135 0.05689883
0001d0 7e e6 01 3d 64 53 6b 3d f3 9e ba bd 6d e3 70 bc
       0.031713955 0.057452574 -0.091123484 -0.01470266
0001e0 08 52 1a bd fa 4b 02 3d 37 fc 55 bd 46 a3 bf bb
       -0.037675887 0.03181074 -0.052242484 -0.005848321
0001f0 1d ce fe bc 30 85 c4 bc 4b 7e d7 3d a0 7b 1b 3e
       -0.031104142 -0.02398929 0.10522135 0.15183878
