mnist_float32/mnist_model.tflite (tflite, 408660 bytes, 4 tensors)

dense_2/bias f4 [10]
00000000: 36ee cabd df7f 71bc 8661 233c 8a44 a9bd
00000010: 6b0f 7f3d f629 df3d f5cb c5bd aa1c bbbc
00000020: c52d 8e3d 635f acbc
-0.099087164 -0.0147399595 0.009971982 -0.08265026 0.062270563 0.10896675 -0.09658042 -0.022840817
0.069423236 -0.021041578

dense_1/bias f4 [128]
00000000: 7682 86bd 36c9 0d3e d26b 82bd daa5 3e3c
00000010: b327 cd3d 2a4e a03c 2ff3 563c 5fad 513d
00000020: 3183 09be 25fe fdbd 403e 7d3d 1872 a13d
00000030: e24e 58bd 12be e53c 87fd 3b3d ef8e de3b
00000040: 24f8 093d bc82 ac3d dffa 42bc de86 d039
00000050: a74d 2b3e bf6b ee3c da11 0c3e 0f3c 96bc
00000060: 2aaf 84bd 8bfa b93b 4879 58bc 8579 c3bd
00000070: 8f08 b53c dc14 c4bd e296 403e e37b 0fbe
00000080: 9492 b93d d876 c4bd f3ee d73d 6ba2 153d
00000090: 0faf e5bc b31b 873c 9f0a 3d3d 3d19 4c3d
000000a0: 5b7b 69bb a8a5 023e bc14 bd3b fab0 d43d
000000b0: 5876 9bbd 4e14 86bd 55f4 ad3c a9a6 f4bc
000000c0: f3c0 193e b606 ec3c b9c2 f63d 07d5 82bd
000000d0: 9cfd e8bd 1f64 813c 077a 083d 3591 30bd
000000e0: daea ffbd 21bf cfbd 2904 ad3c 29bb 423d
000000f0: a694 11bd 1fa2 413e 9069 43bd 3831 b63c
00000100: 83e6 83bd 9686 043d f7d0 19bd e4c9 573d
00000110: 365b d13c 3110 02be 121c 5e3d ae88 0bbe
00000120: 1522 bb3d e8f4 12bd 543e 5a3d 6c0b a03a
00000130: c625 6ebb 13ff 853d 508e 8e3d 6778 b63d
00000140: 04de bf3d 2860 063d ac84 9b3c f1d4 d83b
00000150: d028 86bc 9de8 a8bd ca5f 3c3d 1155 37bc
00000160: 0b8d 353d d40d 8dbd 40d1 e23d d883 2a3e
00000170: be83 60bc 36af b0bb e885 ba3d 7bed 6b3c
00000180: 276f 373e e737 1d3e 32e5 033d 01bd 853d
00000190: 30d1 6cbd 2a42 623d 92a9 443d 52f5 4d3d
000001a0: 9a36 f43c 33fb 733e 861b 183e 3bb6 2ebd
000001b0: 44d5 6b3e 97e9 08be 0a15 ca3d e4c6 e43d
000001c0: de6a 0e3e 4e19 463e 3a33 073e bf0e 693d
000001d0: 7ee6 013d 6453 6b3d f39e babd 6de3 70bc
000001e0: 0852 1abd fa4b 023d 37fc 55bd 46a3 bfbb
000001f0: 1dce febc 3085 c4bc 4b7e d73d a07b 1b3e
-0.06567852 0.13846287 -0.06368221 0.011636222 0.10017338 0.019568522 0.013119503 0.05119073
-0.13428952 -0.1240199 0.061826944 0.0788309 -0.052809604 0.028044734 0.04589608 0.0067919414
0.03368391 0.08423373 -0.011900633 0.00039773335 0.16728841 0.029104112 0.13678685 -0.018339185
-0.064787224 0.005675619 -0.013212509 -0.095446624 0.022098808 -0.09574291 0.18807557 -0.14012103
0.09061161 -0.0959298 0.10543623 0.036531847 -0.028037576 0.0164927 0.046152707 0.049828757
-0.0035626504 0.12758505 0.005770294 0.10385318 -0.07590932 -0.065468416 0.02123467 -0.029864626
0.1501501 0.028811794 0.12048859 -0.06388288 -0.11376497 0.015794812 0.0333195 -0.04310723
-0.12495966 -0.10143877 0.021120148 0.04754177 -0.035542153 0.189095 -0.047708094 0.022240266
-0.06440451 0.032354914 -0.0375528 0.052682772 0.025556188 -0.12701489 0.05422599 -0.13626358
0.0913736 -0.035878092 0.053282097 0.0012210435 -0.0036338433 0.06542792 0.06960738 0.08909684
0.09368518 0.032806545 0.018984161 0.0066171815 -0.016376883 -0.082474925 0.04598979 -0.011189715
0.044323962 -0.06887403 0.110750675 0.16651857 -0.013703285 -0.0053919805 0.09107572 0.0143998815
0.17913495 0.15353356 0.032201 0.0653019 -0.057816684 0.05523888 0.048013277 0.050282784
0.029811192 0.23826294 0.1485425 -0.042654257 0.23030573 -0.13370357 0.09867294 0.11170748
0.13907954 0.1934559 0.13203135 0.05689883 0.031713955 0.057452574 -0.091123484 -0.01470266
-0.037675887 0.03181074 -0.052242484 -0.005848321 -0.031104142 -0.02398929 0.10522135 0.15183878

sequential_1/dense_1/MatMul f4 [128, 784]
00000000: 8e45 493d 67b6 17bd 42e3 e2bc 4942 6fbd
00000010: f236 5f3d 06fa 5a3d 1c54 7abd 31b7 9cbd
00000020: e7cc 80bd d838 85bd 1ac7 5c3d 39e3 1cbd
00000030: 6cfb a03c 570e 45bd c0d7 65bc d08a 5cbd
00000040: 8a8c 4bbd 6bfb 8c3d 7248 663d e6f5 a1bd
00000050: d6e1 653d d639 e6bc e8ee 0ebc b036 82bb
00000060: 418f 973d 3c1b 333d 98c4 323c 9766 3ebd
00000070: 4146 15bd 70a9 dc3c 91ca 9a3d 68bb 84bd
00000080: 1abb 48bd 60cc 7dbd ffae 32bd 76c8 47bd
00000090: a392 a5bc d267 36bd 64f5 bebc d79d ffbd
000000a0: a2de b8bd bf9f 7dbc c851 a0bd 276c d2bd
000000b0: cabf 833c 54f8 333d 8e0b bfbd 08b3 67bc
000000c0: b50c df3b 2cf0 93bc 34f4 8b3d 7627 57bd
000000d0: 3854 8cbd 20a2 8bbb def1 1d3d 7e85 2cbd
000000e0: c1da 923d 1f8a 923d aa8e 06bd 0d8c a03d
000000f0: ba55 45bd c7b9 8a3c e45b 393d ec19 6ebc
00000100: f793 8a3c ab5e fe3c 2f06 f4bc 1032 a7bd
00000110: 5635 13be 1569 39be f27e 12be abab 09be
00000120: fdd0 07be 9ac8 adbd de70 e9bd b141 7d3d
00000130: c383 dbbc 70ce 73bd 5761 43bd 3f5c 98bd
00000140: 9c44 a3bd 8951 cd3c 20fa 213d 6278 2a3d
00000150: 8459 55bd f69b d4bc 3074 dabc 7927 4e3d
00000160: 10f5 1bbd 0371 9b3d 2c8c f33d 8a72 1b3e
00000170: 4433 763e a21c 1f3e 630c 983d 8c36 403e
00000180: 736c 143e 716d c23d 2c76 c93d 38d9 d83d
00000190: d411 10be e0fe 0cbe 704f f8bd 3821 13be
000001a0: 6efc 1bbe da14 03be 96b4 46be 15ae 89bd
000001b0: 1e86 f4bc 9ce8 6e3c 8bd3 0abc e0ea 65bc
000001c0: 80d4 32bb d804 963d b4d1 bf3c 6cd9 d93d
000001d0: 0fe6 febc 0f4f 44bd 4935 a43d d4d9 293e
000001e0: e47a 4c3e ecb2 1a3e 05fa b93e 52a7 953e
000001f0: adac 213e 17dc 823e 3af5 ce3d c2ef 9e3d
00000200: 2116 973d f7b1 cb3d 921c b73d c708 93bd
00000210: c024 f2bc ec46 9fbd f05b 09be 4b4e ffbd
00000220: 8267 293e 0edf 893d fa8b 6e3d dcb8 40bd
00000230: c076 923b ce13 ddbc 74d4 87bb 760b 743d
00000240: b5ae 1c3d 563d 70bd ab9b 38bd 8642 613d
00000250: 261b 67bd e8bb 0d3d c3c2 2f3e faf7 223e
00000260: 9323 183e b8fd 853d f5d8 b33b 39e5 c3bd
00000270: 5aa4 0ebb 60e4 8b3d ba90 813d cc01 06bd
00000280: 1240 b23d c408 a2bd 6b29 823c a487 06bd
00000290: 8997 ffbc c67a 213e a477 b23d b02a 9ebd
000002a0: 8684 423d a817 6f3c ea12 7fbe beb1 993c
000002b0: 81ff f6bd 397e 00be f2b1 31bd c38f 46bd
000002c0: c183 8bbd e5d0 9cbd fc7e c8bd 932d f4bd
000002d0: 33a0 b7bd 4131 023d 3776 36bd 0271 07bd
000002e0: eda3 67bc e327 723d 9878 7dbd ea23 0bbd
000002f0: a255 bebd e560 6ebd f572 643d 08c4 b13c
00000300: 8b8e 443e 2c6e 0b3d a8b5 493b 03e4 de3c
00000310: 96cd bdbc 1b5a 4e3d 43b8 2ebe 5aa6 eabd
00000320: 675e 403d a5ce 7c3d f420 e7bc b2ad 8dbd
00000330: b8ed 8fbd 0610 90bd 0948 e4bd c036 bb3b
00000340: 96f2 aabd 57c2 a33d cbe4 5b3d 84e4 a53c
00000350: b639 16bd d042 ec3d d434 8ebb bbc3 bfbd
00000360: bd1d 803c 68aa 383b 21ca 7fbd 3b4c 84bd
00000370: fbb2 bcbc 199c 5d3d eaa9 a33d 5cac 6fbd
00000380: 9991 82bc 67ec 39be f553 f63b 44ff 303b
00000390: fe74 173e afd7 573d 0e8e 13be 5c7b dbbd
000003a0: 4bee 04be b391 e03d 5520 1d3d 4ffb 5dbd
000003b0: 827f d4bd ae78 833d 5027 5fbd 42ff b1bd
000003c0: 760d ca3d 4175 d03a 054e c13c 7156 54bd
000003d0: b7df 003e a088 483d 8dd2 133d f4f6 bcbc
000003e0: 6b11 f0bc b113 e53c fd5e 053d 70e0 23bc
000003f0: 7e2c 88bd 3039 81bd 51b8 053e f355 8d3d
0.0491386 -0.037039187 -0.027696256 -0.058412824 0.05449576 0.053461097 -0.06111537 -0.076521285
-0.06289082 -0.06504983 0.053900816 -0.038302634 0.019651137 -0.04810938 -0.01402849 -0.05384332
-0.049694575 0.06883892 0.056221433 -0.079082295 0.056123577 -0.02810375 -0.008723952 -0.0039738044
0.074003704 0.043727145 0.010911129 -0.046484556 -0.036443952 0.026936263 0.07558168 -0.064810574
-0.04900656 -0.061962485 -0.04362392 -0.04877516 -0.020211523 -0.044532605 -0.02331037 -0.124812774
-0.09026839 -0.015479981 -0.078280985 -0.10274535 0.016082663 0.043937996 -0.09328376 -0.0141418055
0.0068069347 -0.018058859 0.068336874 -0.052527867 -0.06852001 -0.00426127 0.03856074 -0.042119496
0.0717063 0.07155251 -0.0328509 0.078392126 -0.04817746 0.016934289 0.04525365 -0.014532547
0.016916258 0.031051 -0.029788105 -0.081638455 -0.14375815 -0.18106492 -0.14306238 -0.13444392
-0.13263316 -0.08485527 -0.11398481 0.061830226 -0.026796227 -0.059523046 -0.047700252 -0.074394695
-0.079720706 0.025063293 0.03954518 0.041618712 -0.052087322 -0.025953274 -0.02666673 0.050330613
-0.038075507 0.07589915 0.1189197 0.15180412 0.24042994 0.15538266 0.074242376 0.18770808
0.14494495 0.094935305 0.098369926 0.10588306 -0.14069301 -0.13769102 -0.121245265 -0.1436814
-0.15233013 -0.12800923 -0.19404826 -0.06722657 -0.029849108 0.014581826 -0.008473287 -0.014033049
-0.0027287304 0.073251426 0.023415424 0.10637173 -0.03111556 -0.04792696 0.08017976 0.16587001
0.19968754 0.15107316 0.36323562 0.29229218 0.15788527 0.2555854 0.10105367 0.07760574
0.07377268 0.099460535 0.08940996 -0.071794085 -0.02955854 -0.07777199 -0.13413978 -0.12466105
0.16543391 0.067319974 0.05823896 -0.047051296 0.0044697225 -0.026986983 -0.0041451994 0.059581243
0.03825255 -0.058652245 -0.04507033 0.054995082 -0.056422375 0.03460303 0.1716414 0.15914908
0.1485732 0.06542534 0.00548851 -0.09565205 -0.0021765442 0.068306684 0.063264325 -0.032716557
0.08703627 -0.07911828 0.01588889 -0.0328442 -0.031200187 0.1576949 0.08714226 -0.07722986
0.047489665 0.014593042 -0.24909559 0.018761512 -0.12060452 -0.1254815 -0.043382592 -0.048476946
-0.068122394 -0.07657031 -0.09789845 -0.11922755 -0.089661025 0.031785253 -0.044546332 -0.033066757
-0.014138204 0.05912007 -0.061882585 -0.033969797 -0.09293677 -0.058197875 0.055773694 0.02169992
0.19195001 0.034040615 0.0030778442 0.027208334 -0.02316932 0.0503789 -0.17062478 -0.1145751
0.04696503 0.06172051 -0.028213955 -0.069178954 -0.07027763 -0.07034306 -0.11146552 0.005713314
-0.08347051 0.07996052 0.05368499 0.020250566 -0.03667613 0.11536181 -0.0043397937 -0.093635045
0.01563918 0.0028177742 -0.062448625 -0.06459852 -0.023034563 0.054103944 0.07991393 -0.058513984
-0.015938567 -0.18156587 0.0075173327 0.002700762 0.14790723 0.052695926 -0.14409658 -0.10716888
-0.12981527 0.1096529 0.038360912 -0.054194745 -0.10375883 0.06419502 -0.05448085 -0.08691265
0.09865849 0.0015904085 0.023596773 -0.05184025 0.1258534 0.04895842 0.03608947 -0.023066975
-0.02930518 0.027963491 0.03256129 -0.010002241 -0.06649111 -0.06309736 0.13058592 0.06901159

sequential_1/dense_2/MatMul f4 [10, 128]
00000000: 6257 89bd 1d64 69bd 423e 073e 556a e9be
00000010: a22b 433e 8380 55bb 5eae 99be 5474 babe
00000020: cde4 663e 0ff0 74be af36 423e b214 d7be
00000030: 07e9 a63d 87d9 38be d207 123e ba8c d9be
00000040: b56b 7f3e d82c 11bf ddc6 063e 79b4 2d3e
00000050: f124 ba3e e1c9 013e 96aa 923d 8176 f9bc
00000060: f6a3 cebe 4680 8dbe 5348 8b3c 3cb9 763e
00000070: 36d3 753e eec3 923d eab7 76be 8c24 2ebf
00000080: c406 0fbe 41d1 503e 5712 b6be c959 7fbe
00000090: 5fb3 a2bd 995f 753e 84c9 323e df53 a23d
000000a0: 36b2 8d3c fbae 703e 8565 c6be 3516 04bf
000000b0: 4af0 ba3c 0b9f 923e 192f ac3e 837d 5fbe
000000c0: 2ade 43be 2025 633d 8e57 573d 616c 523e
000000d0: 307d b13d 92d0 35be da5a a6be 5a13 043e
000000e0: 5d69 0c3e 1edb 46be ac02 efbe 19b0 febd
000000f0: b94f 38be d797 aa3d 0531 0cbd 8d3e ccbe
00000100: 09b5 98bc 5579 62be 12dd a43e 217f 36be
00000110: 6f43 5c3e 2bb0 0b3e af9a 0abe ed1d c23d
00000120: 5f6a 6dbe 179e 293e 1ee3 603e feca 3bbe
00000130: ab4d c53c b135 d3bd 485d c2bd d74b 29be
00000140: 678b 9ebe 488e b63d acc1 d1be a8b9 19bf
00000150: 85da 60bd 157f 05be 824a 17bf 627b a73e
00000160: 5a99 b5be da74 b5bd 606c 633d 07f0 d33c
00000170: a680 2bbe 8f48 9ebe f1c1 a1be 6530 3c3e
00000180: bd2d 1fbe 64d9 273e 0058 bfbe 378f 20be
00000190: 2b18 78be 9030 7a3e 7b01 e23d 9736 943e
000001a0: 97c6 953d 1c6d 3cbe 892d a4be 41c0 043f
000001b0: 6bc0 263e 6ec9 763e 5d7a 40bf aa0f 3c3d
000001c0: 87dd 1dbd 9f6d be3c e7e2 01bf a101 00bd
000001d0: ec2d c03e e170 943d a097 76bc 0ad4 85bd
000001e0: 2dd3 623e e1c8 0dbe b865 13bf 5849 a8be
000001f0: 3ff7 743e 58eb 84bd 1c72 5ebf ea4d f6bd
00000200: cc7f 16be 5b46 9dbe 6640 b9bd 1136 393e
00000210: 5b68 37bb 989d 8cbd d858 893e 7985 24be
00000220: aff3 e3bc b0ef 26be eee8 d8be 224a 4ebc
00000230: e4d0 83be ef95 6b3e bb10 88be c58c d63c
00000240: 9410 b0be 5a34 82be 5c6b 5a3e 0502 25bf
00000250: 2a3c 0b3f fd2a 00bd 9aa7 b83e dbd4 3dbe
00000260: bfa0 f1bd bb3b b03e 5ecd e3be b012 793e
00000270: 2171 903e 9561 8bbe 9863 493e c420 bdbc
00000280: 0767 eebd dc44 78be 0673 373e c0b4 c93e
00000290: 8139 2cbe 61b1 16be 0697 853e 6fe0 013d
000002a0: 5db5 883d 3f82 96be 051c 023d 9f23 b63e
000002b0: 1bee afbe 1072 06be c52c d3be a394 d7be
000002c0: d14e b2be b776 77be 5abf c8be 25df 733e
000002d0: c9ea 60be b34b dabd 48f9 843e f54b 9dbe
000002e0: f037 27bd ee1b 9b3d cff4 0a3e 5252 533d
000002f0: bc5f 8f3e 9405 c43e 9153 7dbc de0c 18bd
00000300: b18d a6bd d615 813d a480 b5bd fd4a 903e
00000310: 727a 873e 418e c7bc 3d1b 86be 85a5 3f3e
00000320: ef32 c4be 43fa a9be 55df 11bd 6671 a33c
00000330: 32db 98bc e60c 233f 07cb 85be 6c20 0dbf
00000340: e125 063e 60ea 493d 7dda 123f 3319 993e
00000350: f2dc 43bd 2069 383d 2217 a0be 3973 9c3e
00000360: 0fcf 663c 140d a4bd d844 7d3e 49f6 89be
00000370: d472 81be 9292 93be f44e f63c b562 ec3e
00000380: cbce 08be 6f8e 85be 2c1f 8dbe c198 ba3e
00000390: 6e01 2b3e 18a2 fc3d 63dc d13b ab1e 0b3e
000003a0: fcbd d9bd 9c4c 973e a492 60be 1d57 02bf
000003b0: 35c9 053e fa4a 75be 4f0c 883d c627 a2be
000003c0: ea07 ebbe 756d 09bf 7bf8 2dbf 893d ba3d
000003d0: 23b7 e2be bb19 3dbf 79ee febd 9dc1 513d
000003e0: 39da 0ebe 6e75 483e ad67 3cbe 0258 2ebd
000003f0: 37eb 91be ab7e d1bd 3504 98bc e2d4 0f3e
-0.0670612 -0.05698024 0.13207343 -0.45588937 0.19059613 -0.003257782 -0.30015844 -0.36416876
0.22548218 -0.239197 0.18966173 -0.42007977 0.08149915 -0.1805173 0.14260796 -0.42490178
0.2494343 -0.5670905 0.13161798 0.16963376 0.3635631 0.12674667 0.07161443 -0.030452015
-0.40359467 -0.27636927 0.01700226 0.24094099 0.24006352 0.07166277 -0.24093595 -0.68024516
-0.13967425 0.20392324 -0.35560867 -0.24936594 -0.079443686 0.23962249 0.17459685 0.079261534
0.017296892 0.2350425 -0.38749328 -0.51596385 0.022819657 0.28636965 0.33629683 -0.21825223
-0.19127718 0.055455327 0.052573733 0.20549156 0.08666456 -0.17755345 -0.3249119 0.12898007
0.13712068 -0.19419524 -0.46681726 -0.12435932 -0.17999162 0.083297424 -0.034226436 -0.39891472
-0.018641012 -0.22116597 0.32199913 -0.17821933 0.21510099 0.13641421 -0.1353557 0.09478364
-0.23185109 0.16564213 0.21961638 -0.18339154 0.024084887 -0.10312975 -0.09490448 -0.16532837
-0.3096573 0.08913857 -0.40968072 -0.60048914 -0.054895896 -0.13036759 -0.59098065 0.3271132
-0.3546856 -0.08860178 0.055523276 0.02587129 -0.16748294 -0.30914733 -0.31593278 0.18377836
-0.15544792 0.16391522 -0.37371826 -0.15679632 -0.2422797 0.24432588 0.110354386 0.289479
0.07313269 -0.18400997 -0.3206599 0.51855856 0.16284339 0.24100277 -0.7518671 0.045913376
-0.038541343 0.02324563 -0.5073685 -0.031251553 0.37535036 0.072480924 -0.015050799 -0.06534584
0.2215087 -0.1384616 -0.57577085 -0.32868457 0.23922442 -0.06490201 -0.8689287 -0.1202658
-0.14697188 -0.3071774 -0.09045486 0.18087031 -0.0027985785 -0.06865996 0.26825595 -0.16066541
-0.027826158 -0.16302371 -0.4236521 -0.012590917 -0.25745308 0.23006414 -0.26575264 0.026190171
-0.34387648 -0.25430566 0.21330017 -0.64456207 0.5438868 -0.031290997 0.3606537 -0.18538229
-0.11798238 0.3442057 -0.4449262 0.24323535 0.2821131 -0.27222887 0.19666898 -0.023086913
-0.11640745 -0.24245018 0.17914972 0.39395714 -0.16818811 -0.14716102 0.26091784 0.031708177
0.06675217 -0.29396245 0.031765003 0.35574052 -0.34361348 -0.13129449 -0.41245094 -0.42105588
-0.34825757 -0.2416638 -0.3920849 0.23815592 -0.21964563 -0.1065897 0.25971437 -0.30722013
-0.04082483 0.075736865 0.1356995 0.05159218 0.28002727 0.38285506 -0.015461818 -0.037121646
-0.08132494 0.06302993 -0.08862427 0.28182212 0.26460606 -0.024359824 -0.26192656 0.18715484
-0.3832011 -0.33198747 -0.035613377 0.019951534 -0.018659208 0.63691556 -0.2613146 -0.55127597
0.13100387 0.049295783 0.57364637 0.29902038 -0.04781813 0.04502213 -0.3126765 0.30556658
0.014087453 -0.08010307 0.24733293 -0.26945713 -0.2528292 -0.28822762 0.030066945 0.46169057
-0.13360135 -0.2608523 -0.27562845 0.36444667 0.16699764 0.123356044 0.006404446 0.13585918
-0.1063194 0.29550636 -0.21930939 -0.50914174 0.13065036 -0.23954383 0.06642973 -0.3167097
-0.45904475 -0.53682643 -0.67957276 0.09093768 -0.44280347 -0.73867387 -0.12447829 0.051210035
-0.13950433 0.19576046 -0.18398924 -0.0425644 -0.28499767 -0.10229238 -0.018556694 0.14046052
