mnist_1layer_8x8_float32/mnist_model_8x8.tflite (tflite, 3800 bytes, 2 tensors)

dense_3/bias f4 [10]
-0.15393086 3.1967602 -0.060548898 -0.1000002 -0.150798 1.2017251 0.51475906 1.2706993
-1.6643026 0.4332499
00000000: 0da0 1dbe b897 4c40 1f02 78bd e8cc ccbd
00000010: ca6a 1abe 21d2 993f 40c7 033f 46a6 a23f
00000020: de07 d5bf eed2 dd3e

sequential_3/dense_3/MatMul f4 [10, 64]
0.26404563 -0.020093799 -0.16515577 0.11020239 -0.30242696 0.008009395 -0.08183136 0.06355333
-0.019190773 0.20661466 -0.22499824 0.045664586 -0.24185912 -0.16710483 -0.3026736 0.14665453
-0.1815414 -0.008190198 -0.1688962 -0.09571189 -0.21520233 -0.19485746 -0.1057258 -0.30635002
0.06137397 -0.29204312 0.07836327 -0.092133075 -0.3066594 0.05950501 0.022236086 0.11362001
-0.0297741 -0.20726302 -0.1767545 -0.3121821 0.053844467 -0.2806772 -0.2877688 0.13120943
-0.033603128 0.1169676 0.13351862 -0.14816059 0.08415767 -0.2809166 -0.18199186 0.19127463
0.07764751 -0.25568566 -0.07291092 0.02928798 -0.09132963 0.12574664 0.11611847 -0.1739788
-0.120321766 -0.10304106 -0.13593596 -0.077328175 0.08864042 -0.1540073 0.13126466 0.049997866
-0.1793403 -0.32362637 -0.761446 -1.3534442 0.51251006 -2.238098 -1.103776 -0.32615182
0.81876194 -1.2294389 -6.64734 -0.034114286 -0.30998895 0.5410867 1.8662368 -2.407557
-0.57588905 -2.3614607 -7.8233447 -0.73681116 1.222856 -1.5184801 -1.7586672 -4.729273
-0.65535057 -0.5261169 -6.8835087 -2.1431482 2.2113335 -2.3781836 -2.9493876 -1.1178916
0.39531595 -2.8185892 -6.097943 -0.256341 -0.30558625 -9.409318 -2.4548247 -1.015301
-1.0313252 -5.0427055 -0.4819514 2.7275288 -0.49850905 -4.387419 -1.8851116 -0.7026965
-1.3391663 0.58579606 -0.42702731 -2.3404036 0.822294 -1.8846055 -2.904506 0.75668454
-0.11136177 -2.274162 -4.6711273 -7.442421 -8.24917 -3.1048284 -0.5495394 0.038751993
0.019354025 -0.058871288 0.27838874 0.97283685 0.44145918 -2.584137 -2.1547918 0.4525557
0.057537846 -0.19007587 0.9383951 1.5663916 1.7143872 0.5242592 -1.0028831 -1.5969036
0.46425128 0.41484487 0.706722 0.46808475 0.28939068 -0.46410847 -0.8878102 -3.920609
-0.60445297 -3.5853016 -5.773299 -4.739024 -2.1452446 -0.6766932 -2.1193771 0.7799299
-1.4051576 -1.0375578 0.065164514 1.3827543 0.2368226 -1.1410596 -0.7433194 3.7483768
-2.2506645 1.1353961 2.1980972 3.2349277 0.7327978 0.26831707 1.841974 4.8444886
-0.74140215 -0.31196564 0.1781226 -0.99648434 -1.2041625 0.811609 2.121302 0.86012614
-0.010257244 -3.3595605 -4.523547 -2.8188777 -1.3614995 -2.4773746 -1.2460933 0.22976467
0.19149104 -0.13857618 0.16263337 0.20787007 0.25680622 -0.1038184 0.1778957 0.1392225
-0.016588002 0.098147094 -0.04623535 -0.119537555 0.035813745 -0.0592457 0.16493073 -0.12237364
0.12393608 -0.27140945 -0.030850105 -0.19769093 -0.1780036 -0.24510592 -0.19959225 0.20826869
-0.11536838 0.030151855 0.04742621 -0.24028997 -0.18887922 0.10247654 -0.3053795 -0.058769684
0.19837674 -0.07440421 -0.1578034 -0.034887716 -0.29569668 -0.2634972 0.19936377 0.016163707
-0.18433458 -0.2875593 -0.1803169 -0.088391446 0.15931828 -0.1467178 -0.20859344 -0.042865694
-0.11411996 -0.2462674 -0.078760356 -0.0135476105 -0.028286157 -0.02165165 0.2076935 -0.10897717
-0.047007754 -0.0028412938 -0.11177844 0.10011084 -0.036559097 -0.24098732 0.016844898 0.2409465
00000000: fd30 873e c09b a4bc 981e 29be cab1 e13d
00000010: b5d7 9abe d639 033c 3397 a7bd 4028 823d
00000020: f835 9dbc cb92 533e f065 66be ca0a 3b3d
00000030: eba9 77be 871d 2bbe 09f8 9abe 9b2c 163e
00000040: fde5 39be 2e30 06bc 20f3 2cbe 9804 c4bd
00000050: 005e 5cbe b788 47be c586 d8bd e9d9 9cbe
00000060: 4663 7b3d ad86 95be ec7c a03d 44b0 bcbd
00000070: 7602 9dbe 86bb 733d 7428 b63c 9cb1 e83d
00000080: d0e8 f3bc c23c 54be 22ff 34be 55d6 9fbe
00000090: 048c 5c3d ecb4 8fbe 6f56 93be c45b 063e
000000a0: 6fa3 09bd b68c ef3d 1bb9 083e 69b7 17be
000000b0: db5a ac3d 4dd4 8fbe 135c 3abe 7fdd 433e
000000c0: a805 9f3d 3be9 82be 5252 95bd 59ed ef3c
000000d0: 070b bbbd bac3 003e 85cf ed3d 8027 32be
000000e0: 426b f6bd 3107 d3bd cc32 0bbe 3c5e 9ebd
000000f0: 1c89 b53d 17b4 1dbe 3e6a 063e 90ca 4c3d
00000100: fca4 37be 5bb2 a5be 20ee 42bf a93d adbf
00000110: dc33 033f ff3c 0fc0 8848 8dbf 5ffd a6be
00000120: 629a 513f 415e 9dbf 02b7 d4c0 6cbb 0bbd
00000130: dfb6 9ebe a884 0a3f d9e0 ee3f 6a15 1ac0
00000140: 776d 13bf 2c22 17c0 d758 fac0 a89f 3cbf
00000150: 8c86 9c3f 8e5d c2bf 021c e1bf 3456 97c0
00000160: 0ec5 27bf 99af 06bf b445 dcc0 5729 09c0
00000170: 7d86 0d40 2934 18c0 c4c2 3cc0 1217 8fbf
00000180: da66 ca3e c463 34c0 5922 c3c0 213f 83be
00000190: cd75 9cbe 918c 16c1 d91b 1dc0 62f5 81bf
000001a0: 7702 84bf d85d a1c0 55c2 f6be d58f 2e40
000001b0: 943c ffbe bd65 8cc0 564b f1bf ebe3 33bf
000001c0: cd69 abbf bbf6 153f 53a3 dabe 2cc9 15c0
000001d0: dc81 523f c13a f1bf 6de3 39c0 14b6 413f
000001e0: a411 e4bd df8b 11c0 e079 95c0 5028 eec0
000001f0: 9afc 03c1 82b5 46c0 9dae 0cbf 69ba 1e3d
00000200: 558c 9e3c 0523 71bd f888 8e3e d60b 793f
00000210: f006 e23e 8062 25c0 1ce8 09c0 61b5 e73e
00000220: ceac 6b3d 40a3 42be a93a 703f 857f c83f
00000230: 0a71 db3f da35 063f 795e 80bf 5667 ccbf
00000240: 58b2 ed3e 8c66 d43e bceb 343f cea8 ef3e
00000250: 042b 943e a09f edbe 8747 63bf 42eb 7ac0
00000260: 6ebd 1abf 9575 65c0 debe b8c0 16a6 97c0
00000270: b04b 09c0 c43b 2dbf e0a3 07c0 7ca9 473f
00000280: 34dc b3bf b2ce 84bf f974 853d 18fe b03f
00000290: a081 723e 3e0e 92bf 2e4a 3ebf 68e5 6f40
000002a0: e30a 10c0 a954 913f a0ad 0c40 0e09 4f40
000002b0: a398 3b3f db60 893e cec5 eb3f 0d06 9b40
000002c0: 88cc 3dbf f6b9 9fbe c565 363e 9919 7fbf
000002d0: ff21 9abf 9cc5 4f3f 69c3 0740 3a31 5c3f
000002e0: 000e 28bc 0a03 57c0 e6c0 90c0 7e68 34c0
000002f0: 9e45 aebf 4e8d 1ec0 fc7f 9fbf 6e47 6b3e
00000300: 3a16 443e eae6 0dbe 5d89 263e e4db 543e
00000310: 1b7c 833e be9e d4bd 4a2a 363e 5890 0e3e
00000320: 90e3 87bc 5801 c93d 4761 3dbd 1bd0 f4bd
00000330: 6fb1 123d 9eab 72bd 9ae3 283e 089f fabd
00000340: 33d2 fd3d 2ef6 8abe 5cb9 fcbc 7e6f 4abe
00000350: 9346 36be 0cfd 7abe e961 4cbe 6344 553e
00000360: 4246 ecbd 0601 f73c fc41 423d 930e 76be
00000370: 8e69 41be 38df d13d b45a 9cbe 7bb8 70bd
00000380: 4623 4b3e 3c61 98bd 3797 21be 6ce6 0ebd
00000390: 8e65 97be 1be9 86be 0426 4c3e c069 843c
000003a0: 34c2 3cbe f93a 93be fea4 38be 9306 b5bd
000003b0: 5524 233e 313d 16be 8599 55be f093 2fbd
000003c0: bab7 e9bd 852d 7cbe 1c4d a1bd ccf6 5dbc
000003d0: 5fb8 e7bc cd5e b1bc 9bad 543e 6c2f dfbd
000003e0: 348b 40bd 0035 3abb 18ec e4bd e906 cd3d
000003f0: febe 15bd 61c5 76be 50fe 893c aeba 763e
