mnist_1layer_uint8/mnist_model_quant.tflite (tflite, 9592 bytes, 1 tensors)

sequential_3/dense_4/MatMul i1 [10, 784] scale=0.011801077 zero_point=0
-0.059005387 0.059005387 -0.04720431 0.07080646 0.011801077 0.03540323 0.011801077 -0.04720431
-0.059005387 0.08260754 -0.03540323 0.011801077 0.023602154 -0.011801077 -0.059005387 0.03540323
0.03540323 -0.03540323 0.08260754 0.0 0.07080646 -0.07080646 0.03540323 0.0
0.059005387 -0.023602154 0.023602154 0.04720431 -0.07080646 0.059005387 -0.08260754 -0.08260754
-0.08260754 0.04720431 -0.059005387 -0.011801077 -0.011801077 -0.07080646 -0.20061831 0.07080646
0.17701615 0.04720431 -0.37763447 -0.16521508 -0.38943553 -0.24782261 -0.3186291 -0.03540323
0.0 -0.011801077 0.011801077 -0.011801077 -0.08260754 -0.03540323 0.04720431 0.023602154
-0.07080646 -0.04720431 0.0 0.059005387 0.03540323 -0.18881723 -0.2596237 -0.21241939
-0.27142477 -0.37763447 -0.460242 -0.18881723 -0.2596237 -0.306828 -0.5192474 -0.88508075
-0.59005386 -0.7906722 -0.8142743 -0.56645167 -0.4720431 -0.5192474 -0.2596237 -0.16521508
-0.059005387 -0.03540323 0.04720431 0.011801077 -0.059005387 0.08260754 -0.059005387 0.106209695
-0.07080646 -0.24782261 -0.306828 -0.16521508 -0.023602154 -0.22422047 -0.09440862 -0.023602154
-0.04720431 -0.03540323 -0.023602154 -0.059005387 0.03540323 -0.059005387 -0.28322583 -0.28322583
-0.23602155 -0.38943553 -0.4130377 -0.14161292 -0.106209695 -0.04720431 -0.16521508 -0.023602154
0.011801077 0.03540323 -0.08260754 -0.03540323 -0.17701615 -0.24782261 -0.24782261 -0.09440862
-0.04720431 0.118010774 0.03540323 0.059005387 -0.12981185 0.011801077 -0.08260754 -0.011801077
-0.023602154 0.011801077 -0.03540323 -0.16521508 -0.14161292 -0.118010774 -0.023602154 -0.153414
-0.29502693 -0.22422047 -0.118010774 -0.04720431 0.04720431 -0.03540323 -0.22422047 0.0
-0.28322583 -0.37763447 -0.09440862 -0.059005387 0.011801077 -0.07080646 0.08260754 0.08260754
-0.09440862 0.059005387 0.18881723 0.08260754 0.03540323 0.18881723 0.18881723 0.059005387
-0.03540323 -0.03540323 0.011801077 -0.2596237 -0.306828 -0.7316668 -0.5546506 -0.118010774
-0.07080646 0.03540323 -0.153414 -0.18881723 -0.37763447 -0.106209695 -0.106209695 0.08260754
-0.011801077 -0.21241939 0.08260754 0.059005387 0.04720431 0.118010774 0.153414 0.12981185
0.118010774 0.2596237 0.18881723 0.09440862 0.059005387 0.22422047 0.12981185 -0.118010774
-0.44844094 -0.95588726 -0.6372582 -0.08260754 -0.08260754 -0.17701615 -0.12981185 -0.24782261
-0.38943553 -0.106209695 0.059005387 -0.106209695 -0.20061831 0.011801077 0.09440862 0.14161292
0.07080646 0.16521508 0.059005387 0.16521508 0.16521508 0.23602155 0.24782261 0.106209695
0.08260754 0.08260754 0.118010774 0.22422047 -0.106209695 -0.64905924 -0.460242 -0.21241939
0.14161292 -0.106209695 0.023602154 0.03540323 -0.37763447 -0.04720431 -0.011801077 -0.023602154
0.0 0.09440862 0.14161292 0.14161292 0.118010774 0.059005387 0.08260754 0.21241939
0.3658334 0.24782261 0.33043015 0.23602155 0.12981185 0.12981185 0.153414 0.306828
0.03540323 -0.6608603 -0.6254571 -0.153414 0.03540323 -0.04720431 0.153414 0.011801077
00000000: fb05 fc06 0103 01fc fb07 fd01 02ff fb03
00000010: 03fd 0700 06fa 0300 05fe 0204 fa05 f9f9
00000020: f904 fbff fffa ef06 0f04 e0f2 dfeb e5fd
00000030: 00ff 01ff f9fd 0402 fafc 0005 03f0 eaee
00000040: e9e0 d9f0 eae6 d4b5 cebd bbd0 d8d4 eaf2
00000050: fbfd 0401 fb07 fb09 faeb e6f2 feed f8fe
00000060: fcfd fefb 03fb e8e8 ecdf ddf4 f7fc f2fe
00000070: 0103 f9fd f1eb ebf8 fc0a 0305 f501 f9ff
00000080: fe01 fdf2 f4f6 fef3 e7ed f6fc 04fd ed00
00000090: e8e0 f8fb 01fa 0707 f805 1007 0310 1005
000000a0: fdfd 01ea e6c2 d1f6 fa03 f3f0 e0f7 f707
000000b0: ffee 0705 040a 0d0b 0a16 1008 0513 0bf6
000000c0: daaf caf9 f9f1 f5eb dff7 05f7 ef01 080c
000000d0: 060e 050e 0e14 1509 0707 0a13 f7c9 d9ee
000000e0: 0cf7 0203 e0fc fffe 0008 0c0c 0a05 0712
000000f0: 1f15 1c14 0b0b 0d1a 03c8 cbf3 03fc 0d01
