mnist_1layer_8x8_uint8/mnist_model_quant_8x8.tflite (tflite, 2392 bytes, 1 tensors)

sequential_3/dense_3/MatMul i1 [10, 64] scale=0.08342413 zero_point=0
00000000: 0300 fe01 fc00 ff01 0002 fd01 fdfe fc02
00000010: fe00 feff fdfe fffc 01fc 01ff fc01 0001
00000020: 00fe fefc 01fd fd02 0001 02fe 01fd fe02
00000030: 01fd ff00 ff02 01fe ffff feff 01fe 0201
00000040: fefc f7f0 06e5 f3fc 0af1 b000 fc06 16e3
00000050: f9e4 a2f7 0fee ebc7 f8fa ade6 1be3 ddf3
00000060: 05de b7fd fc8f e3f4 f4c4 fa21 facb e9f8
00000070: f007 fbe4 0ae9 dd09 ffe5 c8a7 9ddb f900
00000080: 00ff 030c 05e1 e605 01fe 0b13 1506 f4ed
00000090: 0605 0806 03fa f5d1 f9d5 bbc7 e6f8 e709
000000a0: eff4 0111 03f2 f72d e50e 1a27 0903 163a
000000b0: f7fc 02f4 f20a 190a 00d8 cade f0e2 f103
000000c0: 02fe 0202 03ff 0202 0001 ffff 00ff 02ff
000000d0: 01fd 00fe fefd fe02 ff00 01fd fe01 fcff
000000e0: 02ff fe00 fcfd 0200 fefd feff 02fe fdff
000000f0: fffd ff00 0000 02ff ff00 ff01 00fd 0003
0.2502724 0.0 -0.16684826 0.08342413 -0.3336965 0.0 -0.08342413 0.08342413
0.0 0.16684826 -0.2502724 0.08342413 -0.2502724 -0.16684826 -0.3336965 0.16684826
-0.16684826 0.0 -0.16684826 -0.08342413 -0.2502724 -0.16684826 -0.08342413 -0.3336965
0.08342413 -0.3336965 0.08342413 -0.08342413 -0.3336965 0.08342413 0.0 0.08342413
0.0 -0.16684826 -0.16684826 -0.3336965 0.08342413 -0.2502724 -0.2502724 0.16684826
0.0 0.08342413 0.16684826 -0.16684826 0.08342413 -0.2502724 -0.16684826 0.16684826
0.08342413 -0.2502724 -0.08342413 0.0 -0.08342413 0.16684826 0.08342413 -0.16684826
-0.08342413 -0.08342413 -0.16684826 -0.08342413 0.08342413 -0.16684826 0.16684826 0.08342413
-0.16684826 -0.3336965 -0.7508172 -1.334786 0.5005448 -2.2524514 -1.0845137 -0.3336965
0.8342413 -1.251362 -6.67393 0.0 -0.3336965 0.5005448 1.8353308 -2.4192998
-0.5839689 -2.3358755 -7.841868 -0.7508172 1.251362 -1.5016344 -1.7519068 -4.755175
-0.667393 -0.5005448 -6.9242024 -2.1690273 2.2524514 -2.4192998 -2.9198444 -1.0845137
0.41712064 -2.8364203 -6.0899615 -0.2502724 -0.3336965 -9.426927 -2.4192998 -1.0010896
-1.0010896 -5.005448 -0.5005448 2.7529962 -0.5005448 -4.4214787 -1.9187549 -0.667393
-1.334786 0.5839689 -0.41712064 -2.3358755 0.8342413 -1.9187549 -2.9198444 0.7508172
-0.08342413 -2.2524514 -4.671751 -7.4247475 -8.258988 -3.0866928 -0.5839689 0.0
0.0 -0.08342413 0.2502724 1.0010896 0.41712064 -2.586148 -2.1690273 0.41712064
0.08342413 -0.16684826 0.9176654 1.5850585 1.7519068 0.5005448 -1.0010896 -1.5850585
0.5005448 0.41712064 0.667393 0.5005448 0.2502724 -0.5005448 -0.9176654 -3.920934
-0.5839689 -3.5872376 -5.7562647 -4.755175 -2.1690273 -0.667393 -2.0856032 0.7508172
-1.4182101 -1.0010896 0.08342413 1.4182101 0.2502724 -1.1679378 -0.7508172 3.7540858
-2.2524514 1.1679378 2.1690273 3.253541 0.7508172 0.2502724 1.8353308 4.8385997
-0.7508172 -0.3336965 0.16684826 -1.0010896 -1.1679378 0.8342413 2.0856032 0.8342413
0.0 -3.336965 -4.504903 -2.8364203 -1.334786 -2.502724 -1.251362 0.2502724
0.16684826 -0.16684826 0.16684826 0.16684826 0.2502724 -0.08342413 0.16684826 0.16684826
0.0 0.08342413 -0.08342413 -0.08342413 0.0 -0.08342413 0.16684826 -0.08342413
0.08342413 -0.2502724 0.0 -0.16684826 -0.16684826 -0.2502724 -0.16684826 0.16684826
-0.08342413 0.0 0.08342413 -0.2502724 -0.16684826 0.08342413 -0.3336965 -0.08342413
0.16684826 -0.08342413 -0.16684826 0.0 -0.3336965 -0.2502724 0.16684826 0.0
-0.16684826 -0.2502724 -0.16684826 -0.08342413 0.16684826 -0.16684826 -0.2502724 -0.08342413
-0.08342413 -0.2502724 -0.08342413 0.0 0.0 0.0 0.16684826 -0.08342413
-0.08342413 0.0 -0.08342413 0.08342413 0.0 -0.2502724 0.0 0.2502724
