mnist_uint8/mnist_model_quant.tflite (tflite, 104368 bytes, 2 tensors)

sequential_1/dense_1/MatMul i1 [128, 784] scale=0.0070857713 zero_point=0
000000 07 fb fc f8 08 08 f7 f5 f7 f7 08 fb 03 f9 fe f8
       0.0496004 -0.035428856 -0.028343085 -0.05668617 0.05668617 0.05668617 -0.06377194 -0.07794348 -0.06377194 -0.06377194 0.05668617 -0.035428856 0.021257315 -0.0496004 -0.014171543 -0.05668617
000010 f9 0a 08 f5 08 fc ff ff 0a 06 02 f9 fb 04 0b f7
       -0.0496004 0.07085771 0.05668617 -0.07794348 0.05668617 -0.028343085 -0.0070857713 -0.0070857713 0.07085771 0.04251463 0.014171543 -0.0496004 -0.035428856 0.028343085 0.07794348 -0.06377194
000020 f9 f7 fa f9 fd fa fd ee f3 fe f5 f1 02 06 f3 fe
       -0.0496004 -0.06377194 -0.04251463 -0.0496004 -0.021257315 -0.04251463 -0.021257315 -0.12754388 -0.09211503 -0.014171543 -0.07794348 -0.10628657 0.014171543 0.04251463 -0.09211503 -0.014171543
000030 01 fd 0a f9 f6 ff 05 fa 0a 0a fb 0b f9 02 06 fe
       0.0070857713 -0.021257315 0.07085771 -0.0496004 -0.07085771 -0.0070857713 0.035428856 -0.04251463 0.07085771 0.07085771 -0.035428856 0.07794348 -0.0496004 0.014171543 0.04251463 -0.014171543
000040 02 04 fc f4 ec e6 ec ed ed f4 f0 09 fc f8 f9 f6
       0.014171543 0.028343085 -0.028343085 -0.08502926 -0.14171542 -0.18423006 -0.14171542 -0.13462965 -0.13462965 -0.08502926 -0.11337234 0.06377194 -0.028343085 -0.05668617 -0.0496004 -0.07085771
000050 f5 04 06 06 f9 fc fc 07 fb 0b 11 15 22 16 0a 1a
       -0.07794348 0.028343085 0.04251463 0.04251463 -0.0496004 -0.028343085 -0.028343085 0.0496004 -0.035428856 0.07794348 0.12045811 0.1488012 0.24091622 0.15588696 0.07085771 0.18423006
000060 14 0d 0e 0f ec ed ef ec eb ee e5 f7 fc 02 ff fe
       0.14171542 0.09211503 0.0992008 0.10628657 -0.14171542 -0.13462965 -0.12045811 -0.14171542 -0.1488012 -0.12754388 -0.19131583 -0.06377194 -0.028343085 0.014171543 -0.0070857713 -0.014171543
000070 00 0a 03 0f fc f9 0b 17 1c 15 33 29 16 24 0e 0b
       0.0 0.07085771 0.021257315 0.10628657 -0.028343085 -0.0496004 0.07794348 0.16297273 0.1984016 0.1488012 0.36137435 0.29051661 0.15588696 0.25508776 0.0992008 0.07794348
000080 0a 0e 0d f6 fc f5 ed ee 17 0a 08 f9 01 fc ff 08
       0.07085771 0.0992008 0.09211503 -0.07085771 -0.028343085 -0.07794348 -0.13462965 -0.12754388 0.16297273 0.07085771 0.05668617 -0.0496004 0.0070857713 -0.028343085 -0.0070857713 0.05668617
000090 05 f8 fa 08 f8 05 18 16 15 09 01 f3 00 0a 09 fb
       0.035428856 -0.05668617 -0.04251463 0.05668617 -0.05668617 0.035428856 0.17005852 0.15588696 0.1488012 0.06377194 0.0070857713 -0.09211503 0.0 0.07085771 0.06377194 -0.035428856
0000a0 0c f5 02 fb fc 16 0c f5 07 02 dd 03 ef ee fa f9
       0.08502926 -0.07794348 0.014171543 -0.035428856 -0.028343085 0.15588696 0.08502926 -0.07794348 0.0496004 0.014171543 -0.248002 0.021257315 -0.12045811 -0.12754388 -0.04251463 -0.0496004
0000b0 f6 f5 f2 ef f3 04 fa fb fe 08 f7 fb f3 f8 08 03
       -0.07085771 -0.07794348 -0.0992008 -0.12045811 -0.09211503 0.028343085 -0.04251463 -0.035428856 -0.014171543 0.05668617 -0.06377194 -0.035428856 -0.09211503 -0.05668617 0.05668617 0.021257315
0000c0 1b 05 00 04 fd 07 e8 f0 07 09 fc f6 f6 f6 f0 01
       0.19131583 0.035428856 0.0 0.028343085 -0.021257315 0.0496004 -0.17005852 -0.11337234 0.0496004 0.06377194 -0.028343085 -0.07085771 -0.07085771 -0.07085771 -0.11337234 0.0070857713
0000d0 f4 0b 08 03 fb 10 ff f3 02 00 f7 f7 fd 08 0b f8
       -0.08502926 0.07794348 0.05668617 0.021257315 -0.035428856 0.11337234 -0.0070857713 -0.09211503 0.014171543 0.0 -0.06377194 -0.06377194 -0.021257315 0.05668617 0.07794348 -0.05668617
0000e0 fe e6 01 00 15 07 ec f1 ee 0f 05 f8 f1 09 f8 f4
       -0.014171543 -0.18423006 0.0070857713 0.0 0.1488012 0.0496004 -0.14171542 -0.10628657 -0.12754388 0.10628657 0.035428856 -0.05668617 -0.10628657 0.06377194 -0.05668617 -0.08502926
0000f0 0e 00 03 f9 12 07 05 fd fc 04 05 ff f7 f7 12 0a
       0.0992008 0.0 0.021257315 -0.0496004 0.12754388 0.0496004 0.035428856 -0.021257315 -0.028343085 0.028343085 0.035428856 -0.0070857713 -0.06377194 -0.06377194 0.12754388 0.07085771

sequential_1/dense_2/MatMul i1 [10, 128] scale=0.007275809 zero_point=0
000000 f7 f8 12 c1 1a 00 d7 ce 1f df 1a c6 0b e7 14 c6
       -0.06548228 -0.058206473 0.13096456 -0.45837596 0.18917103 0.0 -0.29830816 -0.36379045 0.22555009 -0.2401017 0.18917103 -0.42199692 0.0800339 -0.18189523 0.14551619 -0.42199692
000010 22 b2 12 17 32 11 0a fc c9 da 02 21 21 0a df a3
       0.24737751 -0.5675131 0.13096456 0.1673436 0.36379045 0.12368876 0.07275809 -0.029103236 -0.4001695 -0.27648073 0.014551618 0.2401017 0.2401017 0.07275809 -0.2401017 -0.6766502
000020 ed 1c cf de f5 21 18 0b 02 20 cb b9 03 27 2e e2
       -0.13824037 0.20372266 -0.35651463 -0.24737751 -0.0800339 0.2401017 0.17461942 0.0800339 0.014551618 0.23282589 -0.38561788 -0.5165824 0.021827428 0.28375655 0.3346872 -0.21827427
000030 e6 08 07 1c 0c e8 d3 12 13 e5 c0 ef e7 0b fb c9
       -0.18917103 0.058206473 0.050930664 0.20372266 0.08730971 -0.17461942 -0.3274114 0.13096456 0.13824037 -0.19644685 -0.46565178 -0.12368876 -0.18189523 0.0800339 -0.036379047 -0.4001695
000040 fd e2 2c e8 1e 13 ed 0d e0 17 1e e7 03 f2 f3 e9
       -0.021827428 -0.21827427 0.3201356 -0.17461942 0.21827427 0.13824037 -0.13824037 0.094585516 -0.23282589 0.1673436 0.21827427 -0.18189523 0.021827428 -0.10186133 -0.094585516 -0.1673436
000050 d5 0c c8 ad f8 ee af 2d cf f4 08 04 e9 d6 d5 19
       -0.3128598 0.08730971 -0.4074453 -0.60389215 -0.058206473 -0.13096456 -0.5893405 0.3274114 -0.35651463 -0.08730971 0.058206473 0.029103236 -0.1673436 -0.30558398 -0.3128598 0.18189523
000060 eb 17 cd ea df 22 0f 28 0a e7 d4 47 16 21 99 06
       -0.15279199 0.1673436 -0.37106627 -0.1600678 -0.2401017 0.24737751 0.10913713 0.29103237 0.07275809 -0.18189523 -0.3201356 0.5165824 0.1600678 0.2401017 -0.7494083 0.043654855
000070 fb 03 ba fc 34 0a fe f7 1e ed b1 d3 21 f7 89 ef
       -0.036379047 0.021827428 -0.5093066 -0.029103236 0.37834206 0.07275809 -0.014551618 -0.06548228 0.21827427 -0.13824037 -0.5747889 -0.3274114 0.2401017 -0.06548228 -0.8658213 -0.12368876
000080 ec d6 f4 19 00 f7 25 ea fc ea c6 fe dd 20 db 04
       -0.14551619 -0.30558398 -0.08730971 0.18189523 0.0 -0.06548228 0.26920494 -0.1600678 -0.029103236 -0.1600678 -0.42199692 -0.014551618 -0.2546533 0.23282589 -0.26920494 0.029103236
000090 d1 dd 1d a7 4b fc 32 e7 f0 2f c3 21 27 db 1b fd
       -0.34196302 -0.2546533 0.21099846 -0.647547 0.5456857 -0.029103236 0.36379045 -0.18189523 -0.116412945 0.34196302 -0.44382435 0.2401017 0.28375655 -0.26920494 0.19644685 -0.021827428
0000a0 f0 df 19 36 e9 ec 24 04 09 d8 04 31 d1 ee c7 c6
       -0.116412945 -0.2401017 0.18189523 0.3928937 -0.1673436 -0.14551619 0.26192912 0.029103236 0.06548228 -0.29103237 0.029103236 0.35651463 -0.34196302 -0.13096456 -0.41472113 -0.42199692
0000b0 d0 df ca 21 e2 f1 24 d6 fa 0a 13 07 26 35 fe fb
       -0.34923884 -0.2401017 -0.3928937 0.2401017 -0.21827427 -0.10913713 0.26192912 -0.30558398 -0.043654855 0.07275809 0.13824037 0.050930664 0.27648073 0.38561788 -0.014551618 -0.036379047
0000c0 f5 09 f4 27 24 fd dc 1a cb d2 fb 03 fd 58 dc b4
       -0.0800339 0.06548228 -0.08730971 0.28375655 0.26192912 -0.021827428 -0.26192912 0.18917103 -0.38561788 -0.3346872 -0.036379047 0.021827428 -0.021827428 0.6402712 -0.26192912 -0.55296147
0000d0 12 07 4f 29 f9 06 d5 2a 02 f5 22 db dd d8 04 3f
       0.13096456 0.050930664 0.5747889 0.29830816 -0.050930664 0.043654855 -0.3128598 0.30558398 0.014551618 -0.0800339 0.24737751 -0.26920494 -0.2546533 -0.29103237 0.029103236 0.45837596
0000e0 ee dc da 32 17 11 01 13 f1 29 e2 ba 12 df 09 d4
       -0.13096456 -0.26192912 -0.27648073 0.36379045 0.1673436 0.12368876 0.007275809 0.13824037 -0.10913713 0.29830816 -0.21827427 -0.5093066 0.13096456 -0.2401017 0.06548228 -0.3201356
0000f0 c1 b6 a3 0c c3 9a ef 07 ed 1b e7 fa d9 f2 fd 13
       -0.45837596 -0.5384099 -0.6766502 0.08730971 -0.44382435 -0.74213254 -0.12368876 0.050930664 -0.13824037 0.19644685 -0.18189523 -0.043654855 -0.28375655 -0.10186133 -0.021827428 0.13824037
